checkpoint_critic.pth (torch_old, 82089 bytes, 9 tensors)

bn.weight f4 [24]
00000000: c599 e93d 42e8 7e3e 6fd3 873d d9bd c03d
00000010: c825 773f 68b5 0c3f 2d88 963a 657c 0b3c
00000020: 5760 d53d 0a0c 80bd c956 833d 8800 163e
00000030: 4e33 1a3f f5c5 0c3f 20fc 253d f5f0 453c
00000040: 2eba 103f fdbe 843e d292 983d 71e9 823d
00000050: 29f1 8d3f 1cff 3b3f 0c06 9f3d 1c10 7a3e
0.11406282 0.24893287 0.06632125 0.094112106 0.96542025 0.54964304 0.0011484675 0.008513545
0.10418766 -0.06252296 0.06413037 0.1464864 0.60234535 0.5498956 0.04052365 0.012081374
0.5653409 0.25926962 0.07449879 0.06392182 1.1089221 0.7343614 0.07764825 0.24420208

bn.bias f4 [24]
00000000: 2d20 9b3d 85a8 98bc b2f3 a73c 9d94 46bc
00000010: f089 583d 1ead 8f3d deba c9bb 0cd5 473b
00000020: ce06 c6bc 6b65 f53d b3d7 23bb 03d7 d6bc
00000030: 3454 083e ce45 9cbd fc94 763d a68d 86bd
00000040: 8947 213e 195f cd3c 467c 24bd 07db a0bc
00000050: 105e 1a3e 7108 183d 1bcf 063d 29ea 1ebe
0.075744964 -0.018635044 0.020501945 -0.012120393 0.052865922 0.07015441 -0.0061563095 0.0030491976
-0.024173167 0.119822346 -0.0025000393 -0.026225572 0.13313371 -0.07630502 0.060200676 -0.06569986
0.15749945 0.02506976 -0.04015758 -0.01963569 0.15074944 0.037117425 0.032912355 -0.15519013

bn.running_mean f4 [24]
00000000: b296 b3c0 2935 78bf fb74 e740 1fc6 a0bc
00000010: 36a1 60be 33fc 4e40 fb74 e740 1fc6 a0bc
00000020: 1495 b7c0 16ae 80bf f6e1 ea40 04ea 85bd
00000030: 322d 26be 719b 4c40 f6e1 ea40 04ea 85bd
00000040: 8d25 bdc0 fad8 85bf d033 ea40 493f 8bbd
00000050: 2022 fabd 7e88 4a40 d033 ea40 493f 8bbd
-5.6121454 -0.96956116 7.23303 -0.019625721 -0.21936497 3.234143 7.23303 -0.019625721
-5.736948 -1.0053127 7.340083 -0.065387756 -0.16228178 3.1969874 7.340083 -0.065387756
-5.910834 -1.0456841 7.318825 -0.0679918 -0.1221354 3.1645808 7.318825 -0.0679918

bn.running_var f4 [24]
00000000: 2154 9b41 6111 863f b646 a943 7c3f 0841
00000010: dca8 0242 fe4b 6f40 b646 a943 7c3f 0841
00000020: 4213 9941 31dd 853f 5ebe a943 5675 0d41
00000030: 6e83 0942 08d6 7e40 5ebe a943 5675 0d41
00000040: 4c5e 9341 a7d3 833f d03f b143 700a 1741
00000050: 46b6 1142 6c41 8f40 d03f b143 700a 1741
19.416079 1.0474054 338.55243 8.515499 32.6649 3.7390132 338.55243 8.515499
19.134403 1.0458127 339.48724 8.841146 34.37835 3.9818134 339.48724 8.841146
18.421043 1.0298966 354.49854 9.440048 36.428 4.476736 354.49854 9.440048

fcs1.weight f4 [128, 24]
00000000: b87c 33bd 3658 883d 932f 4ebd c59e 033e
00000010: 82c9 f33e 98ce c03c e286 223d 8f37 3d3d
00000020: cbb9 8c3c ac7b d23d 2fbc 9b3d 8a31 a2bd
00000030: 9d7b 0d3f 49b1 24be 2b39 1b3d 1dd7 d73c
00000040: 558c f5bb 9df5 463d 4672 133e d7da b6bd
00000050: e65e 503f 4dbc 823e e929 1e3e 8710 f6bd
00000060: c39f 06bd cab8 7c3e af1a ebbc b23e be3d
00000070: 5837 2ebe 5222 72be b3c5 babc ca7f 283d
00000080: 317c 8a3e 1a6b 0fbe 752e 25be 8223 c73d
00000090: 8118 143e 1fd0 02bd fa3f 7cbd 4a52 c63d
000000a0: 07e2 b23e 4301 a83e a5c9 a0be d993 9d3d
000000b0: ec04 89bc a424 44be eaa6 bbbe a244 d63c
000000c0: 2fab d1bd ea46 3c3e 4ca7 dcbc bbb1 553e
000000d0: b076 b23e 9db5 243e e6e2 19be 83a6 033e
000000e0: 1bbb 563d 014f c9be 4ce2 b63c 60d0 633d
000000f0: eb5b 463e 0eaf c63e 0be8 93be 0be5 3e3e
00000100: 163d 85bd 2fb0 9b3d f0a9 933d 90ea e3bd
00000110: 9f1b 563e b66a 453e 6de2 a8bd 06d0 fcbd
00000120: d8e8 903e 2871 99bc 4f67 a3bc af1e da3d
00000130: 89d8 dc3d cdef a73c 51ad 45bd 1d8b 013e
00000140: fbff bf3d cfa3 71be d6af dfbc f6ce febb
00000150: 9b23 da3d 8c36 c73d ec9f ebbd 80d3 5b3e
00000160: 32ea 30bd 6915 823b ebb8 16be 7108 c8bd
00000170: 3c5e 2fbe 75b2 bbbc ec00 42be 7e9d 13be
00000180: e542 aabd 0491 573e 91b0 01be 8cc1 173d
00000190: 7f51 dfbd d8e5 4dbd b279 dcbc e13b 9a3d
000001a0: cb3b f6bd 9bbe 223d a38f cfbd de8e e1bd
000001b0: 583a a33d 6315 a23d 0a1e 0fbd 9f1b 09be
000001c0: 3492 06be bbd5 423e 0bcf 2c3c 2353 e7be
000001d0: 9d56 203e 8565 cabd d1eb a03d 5fe5 dbbe
000001e0: 4fd7 9c3d 5f5a bfbb 3ad0 6cbd aa6f 6d3d
000001f0: 6764 2b3f 9e2a 8c3e 1f69 0a3e 61c7 033e
00000200: 06c9 063d d725 4fbe 5cce d4bd 1815 363e
00000210: 1d7d 9d3e 3f4e d03d 85b7 11bd ba43 d33d
00000220: 14b3 5abc 7f97 f2bd 935e 273c f76d 0d3e
00000230: b4e0 bebd 4cdf 68be db0f 653d ebb3 623e
00000240: 186b 833d a7c0 29be 204e 353d 5906 d2be
00000250: 08e8 6c3d fed8 973b 0687 a5bd 5aec 3abc
00000260: 823f 4b3e 835f 34be 42c3 5d3d d2f0 85be
00000270: b60a 3e3d 9649 403e e03f c4bd 5ec7 753d
00000280: 7067 ca3d 8e73 f2be a590 4bbc 78da 56be
00000290: 1988 88be 9444 cd3e 346e 6b3c eb38 2dbe
000002a0: ccb5 d83d 7c63 253e d051 c73c def1 95be
000002b0: d99c f93c 69ee edbd 7899 45bc dacd debc
000002c0: 7097 37ba 8751 54be ec4c 0c3e 9236 f0be
000002d0: 3e39 83bc ee0e 97bd fcc6 4abd 0dc9 12be
000002e0: 9064 0abc 3f0e 483b 5438 e5bd 7516 ec3e
000002f0: 62fe aa3c e1a4 a13d 871a 91bc 0ee1 033f
00000300: fbed cabe 780a 913e 3a8d 35be 8b4a a53e
00000310: 364c 503e aa0c 103e 79e6 de3d 749f d13b
00000320: 9ddf d1bd b39e 81be a7bf 1b3f 18b2 cf3d
00000330: f14e 7abd 1bca eabc 6b53 3b3e 478a 873c
00000340: 8265 abbd a0e6 613e cc27 8f3e 1f5d c6bd
00000350: 89f6 7bbe f788 f83d d8d5 8e3d c74a bfbd
00000360: 34cf a93d d803 87be edef 94bb a75b 293e
00000370: 0c64 22be 6f2d 143c b79e a5bd fd94 a9bd
00000380: 5508 5f3e 94a7 e4be c699 ab3e 4663 a3bd
00000390: 2ec4 a4bb 070b 803e 844c 763d a3dd 303d
000003a0: 96fb a33d 5c7b 79be a9cf de3c f153 bd3c
000003b0: a115 f63e 74e0 493e f162 06be 6c46 003e
000003c0: 0d50 843c 1d78 6c3e dee7 06bd d8e0 bd3d
000003d0: def0 a73d f196 b83d 14d0 e8bb 70ff a5bc
000003e0: f915 9cbd 2398 e4bd dd66 52bd 0331 a13d
000003f0: a1dd 0e3e 236b d03d f3e0 19be 1a68 aa3d
-0.043820113 0.0665745 -0.05033834 0.12853535 0.47614676 0.023536012 0.039679416 0.046195563
0.017178437 0.10277495 0.076042525 -0.07919605 0.55266744 -0.16083254 0.037896316 0.026347691
-0.0074935355 0.04857408 0.1439906 -0.08928459 0.81394804 0.25534287 0.15445675 -0.12014871
-0.032867204 0.24679866 -0.028699247 0.09289302 -0.170133 -0.23645905 -0.022799348 0.041137494
0.27047876 -0.140057 -0.16131003 0.097235695 0.14462472 -0.03193676 -0.06158445 0.09683664
0.3493807 0.32813463 -0.31403843 0.07694215 -0.01672598 -0.19154602 -0.36650783 0.026155774
-0.10237729 0.18386427 -0.026935242 0.2086858 0.34856176 0.16084905 -0.15027961 0.12856488
0.05242453 -0.39318088 0.022324704 0.055618644 0.19371001 0.3880543 -0.28887972 0.1864206
-0.06505792 0.07601964 0.072101474 -0.111287236 0.20908974 0.19278988 -0.08246312 -0.12344365
0.28302646 -0.018730715 -0.019946722 0.10650384 0.10783488 0.020500088 -0.04826099 0.12650724
0.09374996 -0.23597644 -0.027305525 -0.0077761365 0.106513225 0.09727201 -0.11505112 0.214674
-0.043192096 0.0039698374 -0.14718978 -0.09767235 -0.17125791 -0.022912243 -0.18945664 -0.14415547
-0.0831354 0.21051413 -0.12665011 0.037049815 -0.10904216 -0.050268024 -0.026913498 0.07530952
-0.12023123 0.039732557 -0.101348184 -0.11013578 0.079701126 0.079142354 -0.034940757 -0.13389443
-0.1314171 0.19026844 0.01054741 -0.45180616 0.1565804 -0.098826446 0.078574784 -0.42948434
0.07658254 -0.0058396305 -0.057815768 0.05796782 0.66950077 0.27376264 0.13516663 0.12869026
0.032906555 -0.20229279 -0.103909224 0.17781484 0.30759516 0.10171174 -0.03557541 0.10315652
-0.01334836 -0.11845302 0.010215419 0.1381148 -0.093202025 -0.22741431 0.055923324 0.22138946
0.06416911 -0.16577397 0.04426396 -0.41020468 0.05783847 0.004634022 -0.08082394 -0.01140889
0.19848445 -0.1761456 0.05414129 -0.26160294 0.046396933 0.18778071 -0.09582496 0.060004584
0.098830104 -0.47353786 -0.012424623 -0.20981777 -0.26666334 0.40091383 0.014369536 -0.16916244
0.1058155 0.16151232 0.024331003 -0.29286093 0.030470299 -0.11617739 -0.012060516 -0.027197767
-0.0007003462 -0.20734225 0.13701218 -0.46916634 -0.016018506 -0.073758945 -0.049506173 -0.14334507
-0.0084468275 0.003052607 -0.11192384 0.46110883 0.020873252 0.07892776 -0.017712845 0.5151528
-0.3963469 0.283283 -0.17729655 0.32283434 0.20341572 0.14067331 0.10883803 0.006397182
-0.10247729 -0.2531639 0.60839313 0.101413906 -0.06111044 -0.028660825 0.1829354 0.016545428
-0.083689705 0.22060633 0.2796005 -0.0968573 -0.24605764 0.12135499 0.06974381 -0.093404345
0.08291474 -0.2637012 -0.004545203 0.16538869 -0.15858477 0.009044035 -0.08086913 -0.082803704
0.21780522 -0.44659102 0.33515757 -0.07977919 -0.0050282693 0.25008413 0.060131565 0.04318012
0.080069706 -0.24363464 0.02719863 0.023111315 0.48063377 0.19714528 -0.1312368 0.12526864
0.016151452 0.23092695 -0.03293597 0.09271401 0.08200239 0.09013165 -0.007104883 -0.020263404
-0.076213785 -0.1116183 -0.05136763 0.07870676 0.13951732 0.10176685 -0.15027218 0.08320637

fcs1.bias f4 [128]
00000000: f32a f6bd 1ef8 40be 1c5b d5be a73f 4fbe
00000010: 189e c9bd 00a4 f83d 8e4a a0be ade5 30be
00000020: 5638 53be 8e32 54be c7dc b1be d545 07be
00000030: 9200 f1be 3684 1fbe 7337 12be 08e7 33be
00000040: dabc 95be f3bd 6cbe 3edf b2be 3054 06bf
00000050: f095 fdbe 6667 4ebe 0168 01bf de18 ddbe
00000060: b40a 00be 793d 72be d499 19be 8d64 36be
00000070: a2ab d13d 7997 83be 1d61 a4be 1daf 82bd
00000080: b655 44bd 6299 2abe bf20 16be 0c6e 233d
00000090: 0c94 1ebe b405 e9be 3bc4 a9be a567 abbe
000000a0: dbfb 8dbd 4cb3 efbd 5222 4abe b020 1dbe
000000b0: a609 b4be c04f a1be 2578 5cbe ea6d 90be
000000c0: d65a 94bd cde1 24bd f219 9f3b 27a6 09bf
000000d0: 40de 26be 775b 62be e3a1 173d 8a3d 03be
000000e0: ddcd e2be b25e 52be 1026 15be ef6a 1b3d
000000f0: 3338 9cbe 795c afbe 5b83 2cbd e56a 8fbe
00000100: 6bf7 4ebe 50a2 ee3c 1ef7 21bf 9c2d 89be
00000110: 6f75 dbbe dc24 f4bd 785c dfbe 8a63 dabd
00000120: d246 4cbe 5f82 b7be 10f8 b63d 95bf 1ebe
00000130: 0f3c 953d 9b32 f1be 5198 54be 0ec2 f73c
00000140: 8cb7 6bbe e11a d6be 462e 13bd e28c 9ebe
00000150: 7549 5cbe e479 d7be 6d5a 76be 45ba c7be
00000160: 3626 45bd e97c 1e3e 9fda 39be 918a 94be
00000170: 37a0 e6be f86c 3fbe 2cf5 a4be 8467 f2bd
00000180: 0523 96be 27a0 84bd ab75 8fbe e58b e53d
00000190: 96f0 0a3e 98c9 1abe bb0b 743d 305d edbd
000001a0: 495a 08bf f148 63be 3bef a2bd 5d6f 05be
000001b0: 5d6a d9be 7524 b5be f6c1 3bbe ddc2 b2bd
000001c0: 4551 e3bd 52c6 8dbe e51f 0abd 6781 bebd
000001d0: 23d5 9cbe 8af3 edbc 4747 9fbe 4864 e3bd
000001e0: 42d8 0cbd eb43 bfbe fb90 02bf ade2 8fbe
000001f0: 6dd1 2fbe 2243 a03d 2c72 36be 099e cfbe
-0.12019911 -0.18844649 -0.41671073 -0.20239125 -0.09844607 0.121406555 -0.3130688 -0.17275114
-0.20626959 -0.2072241 -0.34738752 -0.13210233 -0.47070748 -0.15577778 -0.14278965 -0.175686
-0.29245645 -0.23119335 -0.34935945 -0.5247221 -0.49528456 -0.20156631 -0.5054932 -0.43183035
-0.12504083 -0.23656262 -0.15000087 -0.17811795 0.102378145 -0.25701502 -0.32105342 -0.063810565
-0.047933303 -0.16660073 -0.14660929 0.03989987 -0.15486163 -0.45512164 -0.33157524 -0.33477512
-0.06932803 -0.1170412 -0.19739655 -0.153445 -0.3516361 -0.31506157 -0.21530207 -0.28208858
-0.07243888 -0.040254403 0.004855388 -0.53769153 -0.16295719 -0.22105204 0.03701962 -0.12816444
-0.44297686 -0.20543936 -0.14565301 0.037943777 -0.30511627 -0.3425024 -0.042117458 -0.28011242
-0.2021157 0.029130131 -0.63267696 -0.2679261 -0.42863032 -0.11921093 -0.43625236 -0.10663517
-0.19948891 -0.35841653 0.08934033 -0.1550277 0.07286846 -0.4710892 -0.20761229 0.0302439
-0.23019236 -0.41817382 -0.0359328 -0.3096686 -0.21512397 -0.42085183 -0.24057932 -0.390093
-0.048132144 0.15477337 -0.18149804 -0.29011968 -0.4504411 -0.18693912 -0.322183 -0.1183615
-0.29323593 -0.06475859 -0.2801946 0.112083234 0.13568339 -0.15115964 0.0595815 -0.1159004
-0.53262764 -0.22195794 -0.07955786 -0.13030763 -0.4246396 -0.35379377 -0.18335709 -0.087285735
-0.11099485 -0.2769037 -0.033721823 -0.09302025 -0.3063136 -0.029046793 -0.31109068 -0.111031115
-0.034385927 -0.37356505 -0.5100247 -0.28102627 -0.17169733 0.078253046 -0.1781699 -0.4055026

fc2.weight f4 [128, 130]
00000000: cce2 97bd ba2b 5e3d 2e7d 05bd fe75 9cbc
00000010: 14b9 8c3e 43a3 863e bece d7be 0a8b f3be
00000020: 5bd8 0cbd 99b4 c93e b48a bcbe 5f9d 14bf
00000030: 2d46 67bd c276 20bd e948 58be d26b babd
00000040: e47f 0ebf b957 7d3d 125e 7ebc 815c 78bd
00000050: 343c b6be 1dc6 b9bc e90e c4bd 52b5 ee3c
00000060: 77e6 a7bd 2b06 bdbe c170 cf3d d5c3 07be
00000070: de77 9bbd 40e4 acbe 7b2f d83e 35e5 bcbe
00000080: 97f4 a9be 1398 27bf 6fef 73be c15b 43be
00000090: 8853 ed3d b6c6 f8bd 44fa b23d 1626 983e
000000a0: ec70 7fbe 9bd8 bf3d f86a 8c3d 3a0e 60be
000000b0: b9a8 d13c ed3a 003e 800b cfbd 1942 94bd
000000c0: b257 22be 5efa c8be b5a8 a0be ffc4 71be
000000d0: 6c0b 94be 7a29 84bd d851 3cbe 6899 9dbe
000000e0: ffbc 3dbe b9d9 4cbe 197d f83d 1985 c03d
000000f0: 91bc c5be 1b86 ac3d 9a59 2a3d 4cd2 4fbf
00000100: 6e70 2abe 7db7 0e3d b902 c5be 2e7e 88be
00000110: 830a b4bd 24e1 a9be 5c49 653e 44e9 a53c
00000120: 680a 193e e808 acbe ee72 6c3e 69f7 0cbe
00000130: 94c6 c9bc e792 69be 1dc5 8cbe 47d3 d0bb
00000140: 1b2b 6b3d bf68 30be d25e c9bc e478 903e
00000150: c50e 57bd 9daf 07bd 76ad 7abe 0e22 37bc
00000160: dcc7 1bbd 8d16 e53d eb8a 58be bc33 84bd
00000170: 6001 a73d f22f 26be 5d3e a8bd 05f8 eebd
00000180: 851b d1bd 1ef5 883d e81d 03bf fc32 aebd
00000190: e2fb 3a3e 2082 b8bd 9da8 603e 21c5 93be
000001a0: e045 87bc aefc 87be 2039 0fbe dc4a 073f
000001b0: cc66 cc3e f1e7 61be 719f 0cbf 2dac f9be
000001c0: e52b 04be 2e39 683e 7762 0abe 4b41 36bf
000001d0: e133 80be f116 14be 3137 2abf 325d c4be
000001e0: f23d 673c f8be 1fbf 5c33 5ebc 7e58 703c
000001f0: a637 ddbd 134f 58be c3c5 d03d d060 abbd
00000200: 7b37 3a3b 12b4 0ebd 84b5 08be 3071 afbe
00000210: 979c 27bd d9d5 83b9 26fb 2dbd 79a9 c7bd
00000220: 58e8 d43d ff32 a9bd 8705 32be e824 1ebe
00000230: b9fa 0f3e 9dd7 c1be a0b9 023d 0930 8ebe
00000240: 9b98 283e 4637 c6bd 9baf 53be 40ea 79be
00000250: 868c 513e 644d 113f 7ba5 4ebe 22c8 d03d
00000260: 8a24 cabd f19c cf3e bc6f 6a3d b954 c73d
00000270: dae3 a7be 9d31 57be a2f0 5fbe 957a b9be
00000280: dead 1bbe 943a 043e de28 25be c3f3 edbd
00000290: da44 98be 5130 e8bd 8daa 1b3e 3290 c3be
000002a0: b300 cc3d b2ad 93bd 2f01 06be 353c 4c3e
000002b0: 29ff 97be 9927 763d 1e73 e0bd e541 acbe
000002c0: 4b22 9c3c 4033 29be 90b6 86be c642 edbe
000002d0: 73d1 0ebd 8793 19bd 7a86 76bd 1073 1dbe
000002e0: 70fa 2e3e bfcf 6fbd c92f 8ebc 1e1b 833d
000002f0: 71c8 06be 220f 46be babc 973d 0047 823d
00000300: dcb9 4fbc 8593 0ebe 1648 703d 48ad 213e
00000310: a05f 7d3c 057b 423e 8adb e2bd 3c01 363e
00000320: b1cb 343f 42eb b23d 843a 59be 101d e1be
00000330: 0a72 95bc bb2c 8c3c 9aeb d8bd d326 b0be
00000340: 01e7 a3bd 1e0e 803c 7e9f 89be 4d86 07bd
00000350: bd13 bebd 921f b23d 70fd d6bd e144 1abe
00000360: 85f1 d7bd 3c49 153e 5866 0bbe 333c df3d
00000370: 17cc a53c 4b5c d8be fa6e 11bf ac78 87bd
00000380: 208c 9a3e b2ff 23bd 597f 97bc 0157 fabd
00000390: 0447 e23d 2e18 90bc c430 bebd b2dc 303e
000003a0: bae2 d8bd 6a83 b53d fe81 8e3e fc5b 883d
000003b0: c1d1 98bd 6ee7 0a3e 67ab c03c 4b90 1bbe
000003c0: fbcb 223d 1aec a2bd 1fee 8dbd c719 993e
000003d0: aade 2fbe 83b9 003e 9511 113c 3dd6 823c
000003e0: 81bd 43be 00a9 f23b cff9 203d cee6 16be
000003f0: 80ef 2bbd 49c2 8d3b 7342 babd 974f 00be
-0.07416305 0.05424092 -0.032590084 -0.019099232 0.27484953 0.26296434 -0.4214992 -0.47567016
-0.03438602 0.39395598 -0.36824572 -0.5805263 -0.05646341 -0.039175756 -0.21121563 -0.09102596
-0.55663896 0.061851237 -0.015525358 -0.060635094 -0.35592806 -0.022677476 -0.095731564 0.029139195
-0.081982546 -0.36918768 0.10128928 -0.13258298 -0.07591222 -0.3376789 0.42223725 -0.3689362
-0.3319442 -0.6546642 -0.23821805 -0.1907797 0.11588198 -0.12147276 0.08739141 0.29716557
-0.2494542 0.09367486 0.0685634 -0.21880427 0.025593149 0.12522478 -0.10109615 -0.072391696
-0.15853766 -0.39253515 -0.31378713 -0.23610304 -0.28914964 -0.064532235 -0.18390596 -0.30781102
-0.18529128 -0.2000493 0.121332355 0.09400386 -0.38620427 0.08424016 0.041589357 -0.8118026
-0.16644451 0.034842957 -0.3847864 -0.26658767 -0.087910675 -0.3317958 0.22391266 0.020252831
0.14945376 -0.33600545 0.23090717 -0.13766254 -0.024630822 -0.22809945 -0.27494135 -0.0063728425
0.057414155 -0.17227457 -0.024581347 0.28217232 -0.05250432 -0.033126462 -0.24480233 -0.011177553
-0.038032398 0.11185942 -0.21146743 -0.0645518 0.08154559 -0.16229227 -0.0821502 -0.116684
-0.10210327 0.066873774 -0.5121751 -0.08505818 0.18260148 -0.090091944 0.21939321 -0.28861335
-0.016512811 -0.26559967 -0.13986635 0.528486 0.39922178 -0.22061135 -0.5493079 -0.48764172
-0.1290737 0.22678062 -0.13514124 -0.7119338 -0.2503958 -0.14461876 -0.66490465 -0.38352352
0.01411389 -0.6240077 -0.01356205 0.014669536 -0.1080163 -0.21123914 0.1019397 -0.08368075
0.0028414417 -0.034839697 -0.13350493 -0.34266043 -0.04092082 -0.00025145596 -0.042475842 -0.09749121
0.103958786 -0.0826168 -0.17384921 -0.15443766 0.14060487 -0.37859812 0.031915307 -0.27771023
0.16464464 -0.09678511 -0.20672457 -0.24405766 0.20463762 0.56758714 -0.20180313 0.10194422
-0.098702505 0.40549424 0.057235464 0.097329564 -0.32791024 -0.2101502 -0.21869138 -0.36226335
-0.15203044 0.12912971 -0.16128871 -0.116187595 -0.2974003 -0.113373406 0.15201779 -0.3819595
0.09961071 -0.07210864 -0.13086389 0.19944842 -0.2968686 0.060096357 -0.10959457 -0.33644024
0.01905932 -0.16523457 -0.2631116 -0.46340007 -0.034867715 -0.03749421 -0.06018684 -0.15375924
0.17087722 -0.05854773 -0.01735677 0.064016566 -0.131624 -0.1934171 0.074090436 0.063611984
-0.01267859 -0.13923462 0.058662497 0.15788758 0.015464693 0.1899224 -0.1107703 0.17773908
0.7062331 0.08736278 -0.21213728 -0.43967485 -0.018242855 0.017111173 -0.105918124 -0.3440462
-0.08003045 0.015631732 -0.26879495 -0.033087064 -0.092811085 0.08697428 -0.10497558 -0.15065338
-0.10544113 0.14578718 -0.1361326 0.10900154 0.02023892 -0.42257914 -0.5680996 -0.06614813
0.30185032 -0.040038772 -0.018493341 -0.12223626 0.110487014 -0.017589655 -0.09286645 0.17271689
-0.1059012 0.08862956 0.2783355 0.066581696 -0.074618824 0.13564846 0.023519231 -0.15191762
0.039745312 -0.07955189 -0.069301836 0.2990248 -0.17174783 0.12570767 0.00885429 0.015971297
-0.19115259 0.0074054003 0.039300736 -0.14736483 -0.041976452 0.004326139 -0.090947054 -0.12530361

fc2.bias f4 [128]
00000000: 582b df3a d8de 63bd 3a65 3dbc e23a 0cbc
00000010: bd4a b4bd bfbd ab3e 3e8b 73bb 1592 d5bd
00000020: afb2 a0bd e643 57be c978 7cbe 4dca e0bd
00000030: 5d64 32bd 3a87 78bd 870b f2bd 19ba 1fbe
00000040: 41b5 f2bd fd61 3ebd cdcf e4bd 42fb 0ebe
00000050: 65a8 04bd dfab 46be 8c7e 7abd b7a8 963d
00000060: d66f 36be 7907 1cbd ef86 b0bd beac 4c3e
00000070: aa3a 163d b580 15be 0427 49be 26fd 02be
00000080: 7e43 013e 2648 4fbe a811 efbd cb2e a8bd
00000090: c74e 02be d033 c1bd 50f6 d0bd eafd 533d
000000a0: 414c 78bd 44bc 68be f8ed 99bd da37 2dbe
000000b0: 7ef4 f8bd d6b0 12be 6ac8 c8bd 098c 55be
000000c0: f10c fcbd e357 97bd 9732 d5bd 79ee 143e
000000d0: 956b 68bd 2631 47be 6407 e2bc 50bc a9bd
000000e0: 7c45 cabd 8b1d cebd fb9a 18be 9f5b eebd
000000f0: 2907 09be 24be f3bd 8b20 cdbd 98d4 ddbd
00000100: 301c 26bd fa37 98bd 3a2f e0bd 9d82 93bd
00000110: 7bd2 60be 3da8 16be c3ca f7be cd0a 06be
00000120: 7685 05bd 65ee 14be d558 b83c 5dd9 bebd
00000130: e351 803d d223 94be ffb6 85be 1d53 c63c
00000140: 2d9b 1abd 0412 c5bd be0e bcbe 95ee 91be
00000150: 8449 03be 143e b8be 2dbb 05be 7b4c cfbe
00000160: ce48 a5bc d881 30be 7893 88be 54a8 42be
00000170: 258a 47be 1e3a e6bd 43f9 8fbd c175 553d
00000180: 4f60 0e3e 9be2 30be c265 c8bd a5e4 14be
00000190: 11d7 113e 171e b2be 6d2b 95bd 9bb2 24bd
000001a0: 7f62 07be 6d5c 6fbd 31fa 19be 33fe bbba
000001b0: b238 cebd d920 30bd 09a7 c8be 4919 803b
000001c0: ae09 61be 339b 56be 8947 f6bd 7367 ccbe
000001d0: 11c0 24be 02e0 35be 6d85 51be 3936 aa3d
000001e0: 5c49 c6bd 5fa4 6dbe 2432 3abe 1625 42bd
000001f0: 35bd 8b3e 0093 1bbe 0247 9fbe a1ff 753d
0.0017026467 -0.055632442 -0.011559779 -0.008558961 -0.08803318 0.33543202 -0.0037161852 -0.104282536
-0.07846581 -0.21021995 -0.24655451 -0.10976086 -0.043552745 -0.060675837 -0.11818605 -0.15598334
-0.11850978 -0.046480168 -0.11172447 -0.13963035 -0.032387156 -0.19401501 -0.06115584 0.073563986
-0.178161 -0.038093064 -0.086194865 0.19987771 0.03667704 -0.14599879 -0.1964379 -0.12791881
0.12623402 -0.20242366 -0.116732895 -0.0821205 -0.12725364 -0.094337106 -0.102032304 0.051755823
-0.060619596 -0.22728068 -0.07516092 -0.16915837 -0.12156008 -0.1432527 -0.09803851 -0.208542
-0.12307156 -0.0738981 -0.1041004 0.14544095 -0.056743223 -0.19452342 -0.027591415 -0.08287871
-0.09876534 -0.100642286 -0.1490287 -0.11638569 -0.13381638 -0.11901501 -0.10015973 -0.10831565
-0.040554225 -0.07432552 -0.10946508 -0.07202647 -0.21955292 -0.14712615 -0.48396882 -0.13090058
-0.03259798 -0.14544065 0.022503296 -0.093188025 0.06265619 -0.2893358 -0.26116177 0.024209553
-0.037745643 -0.09622577 -0.36729997 -0.28502336 -0.12821013 -0.35984862 -0.13059683 -0.40488037
-0.020176318 -0.17237031 -0.2667501 -0.19009525 -0.19486292 -0.11241554 -0.07029965 0.052114252
0.13903926 -0.17273943 -0.09785034 -0.14540346 0.14242198 -0.34788582 -0.072836734 -0.040209394
-0.13221167 -0.058437753 -0.15036847 -0.0014342725 -0.100694075 -0.043000076 -0.39189938 0.003909264
-0.21976349 -0.20957641 -0.12025363 -0.39922675 -0.16088893 -0.17761233 -0.20461054 0.083111234
-0.09681961 -0.23207234 -0.1818319 -0.04739865 0.2729279 -0.15192795 -0.31108862 0.06005824

fc3.weight f4 [1, 128]
00000000: 089b 113d 723a 5d3d 24de 4a3e 0940 1ebd
00000010: bfdb 9d3b 2e52 a73d e1f1 2e3d 1067 12ba
00000020: 1629 213d 8942 dabd 3999 5b3d b0d3 5a3c
00000030: 768a c73d e015 093e 6904 f73c ef47 2dbd
00000040: 8fc6 c8bd 32ea 9b3b 8503 043d 7300 b1bc
00000050: e0fe 08be 917c 6b3d 78cc 15be 36e8 193d
00000060: dc86 943c 6fdb d83d 4c6a 1d3c 568f 4c3d
00000070: 5931 b8bd 6bcf 693b 3f92 a5ba 9fdd 33bd
00000080: 7245 823d fb9c 37bc 8486 e13c debb 4aba
00000090: 637f 9dbb 25c7 64bc 973e a23c a871 393d
000000a0: 1cdf 013d 8216 ca3b f5b0 923d 4798 e13a
000000b0: a305 06bc eb8d 77ba 0247 453e 5f13 cfbd
000000c0: 7197 03be 4c17 ee3a 1888 683c 776b 4f3d
000000d0: 7233 b03d 9685 043d 934f 1abd 4e59 5ebc
000000e0: 8170 52ba ebfc 51bc f30b 9fbd b71b 4a3d
000000f0: 9bdf ccbd 1067 803b 9685 723d c239 9c3c
00000100: 3e30 b7bb b927 573b 58e3 25bc 4fa0 4e3c
00000110: abc5 023a 81cb 433c c491 37be 0e56 50bc
00000120: a400 513e 99b2 16bc c493 98bc 0b1a 51bd
00000130: e168 7f3d 0f2a 35bd 189b 99bd 7078 b83d
00000140: 560c 5d3e 902f ae3d 1d44 d6bd 41d5 afbc
00000150: b46a 21ba 0212 09be 6e92 563c e329 473d
00000160: 6e47 a7bd 8d2a 42bd f312 b23c 7f00 d03c
00000170: 918b d9bc 7fbe cfbb f448 523d 0393 b83c
00000180: 2d7a d93c 8adb fdbc d488 6abd 597c c53b
00000190: e944 4b3d 6119 f4bd be79 ef3d 5fb7 7cbc
000001a0: 10e7 d8ba a3e0 253d 3f33 41bb b784 c63d
000001b0: 00f5 e83c db49 a63d 3241 ff3c 046f cebd
000001c0: e9ef 51bc 6760 69bd 5705 a4bd b3bf 973d
000001d0: 30e7 0cbd 437a 9a3d aa8d 8ebc 5dad 2f3d
000001e0: 8854 4e3c 34bd 983b a371 c9bd e070 2f3a
000001f0: ecdf 0d3d a9d2 3e3c d548 91bd c40c 523d
0.03554824 0.054010816 0.19811302 -0.038635287 0.0048174555 0.081699714 0.042711142 -0.00055848155
0.039345823 -0.10657222 0.05361292 0.013356134 0.09743206 0.13387251 0.03015347 -0.04230493
-0.09803497 0.004758143 0.03222992 -0.02160666 -0.13378477 0.057491843 -0.1462878 0.03757497
0.018130712 0.10588729 0.009607863 0.049941383 -0.08993787 0.003567661 -0.0012632086 -0.043912526
0.06360902 -0.011206861 0.027529962 -0.0007733683 -0.0048064454 -0.013963495 0.019805236 0.045274407
0.031706914 0.006167234 0.07162658 0.001721152 -0.008180055 -0.00094434497 0.19265369 -0.101111166
-0.12850739 0.0018164902 0.0141926035 0.050639596 0.086035624 0.03235396 -0.037673544 -0.013571097
-0.00080276286 -0.012816648 -0.07765951 0.049342837 -0.10003587 0.003918536 0.05920943 0.01907051
-0.0055904677 0.0032830073 -0.010125004 0.012611463 0.0004988561 0.011950375 -0.17926699 -0.01271583
0.204104 -0.009197854 -0.018625148 -0.051050227 0.06235588 -0.044229563 -0.07500285 0.09007347
0.21586737 0.085051656 -0.1046221 -0.021463992 -0.00061575626 -0.13385776 0.013096435 0.04862393
-0.08167921 -0.04740386 0.021737551 0.025390862 -0.026555808 -0.0063398476 0.051339105 0.022531038
0.026547516 -0.030988473 -0.057259396 0.0060267863 0.049626265 -0.11918903 0.11693142 -0.015424578
-0.0016548354 0.040497433 -0.0029480008 0.09693282 0.028437138 0.081195556 0.031159017 -0.10079768
-0.012813547 -0.056976702 -0.08008831 0.074096106 -0.034400165 0.07542851 -0.017401535 0.04288994
0.012593396 0.0046612266 -0.098361276 0.000669254 0.034637377 0.011646905 -0.0709397 0.051281705
