checkpoint_actor.pth (torch_old, 81579 bytes, 10 tensors)

fc1.weight f4 [128, 24]
0.20792799 0.30674264 0.027514294 -0.21745133 0.16866149 0.3658663 0.0719606 -0.18027829
0.09352474 -0.19516025 -0.0992085 0.006247463 0.4106794 0.20644252 -0.039374053 -0.115950555
0.17175537 -0.27219698 0.18130346 -0.2666805 0.7198249 0.07520481 0.17075069 -0.23906237
0.25768903 0.608686 -0.6105909 0.12585692 0.1636156 -0.25241745 -0.41828197 0.20883739
0.045708153 0.34389615 0.36375588 0.51292586 0.08386741 -0.39928567 0.3484927 -0.07185745
-0.16078246 0.31662 0.0553964 0.100314826 0.38434324 -0.4528214 -0.08395879 0.16016325
-0.13678378 0.17228091 -0.01248478 0.010334338 0.26946983 0.17808725 -0.03872994 0.035160366
0.058909472 0.16579314 0.05878058 0.38896295 -0.029991476 0.26483282 0.037303057 0.20579696
0.12749374 0.073867224 0.04851555 0.64229983 -0.5996801 0.15429962 0.0979827 0.7457422
0.044252153 -0.14877048 -0.05806778 -0.20276208 -0.8280679 -0.6099826 -0.14963342 -0.22597037
0.06478402 -0.21970241 -0.22935899 0.03196601 -0.093099445 0.076425694 -0.31314397 0.27385277
-0.14895561 -0.21799769 -0.06709569 0.12907301 0.54648507 0.8651258 -0.043178268 0.04664948
-0.019507872 0.1905781 -0.26824996 0.12977912 0.13592942 -0.5070494 0.111407734 0.14136067
-0.17537361 -0.07429873 0.06134678 -0.0041911663 -0.11657163 0.23100877 0.0138079915 -0.60445106
-0.04018704 -0.30763388 -0.11853039 -0.31536195 -0.6185712 0.7647851 -0.110649705 -0.2885659
-0.048143633 0.06389555 -0.055175845 0.4884009 -0.21748434 -0.76543826 0.30740753 0.5244721
0.12023956 0.19481567 0.33741838 0.24075206 -0.016170584 -0.067038745 0.45518678 0.5320648
0.116438866 0.2981622 0.25810257 -0.20341061 0.1685725 0.6346489 0.3104379 -0.13406071
0.19262317 0.041886147 -0.13886327 0.11502904 -0.18655774 0.16607043 -0.041178267 0.02636478
0.3814565 0.038102362 -0.070786715 0.114376985 -0.53774434 0.007988302 0.07617401 0.10915968
0.56552494 -0.24939485 0.16484828 -0.11586696 -0.97124994 -0.3338619 0.15183234 -0.11153797
-0.04739097 0.6299839 -0.035646353 0.26301083 0.10385549 0.15763566 -0.051434986 0.3575522
0.063652776 0.6684986 -0.0067836302 0.14349082 -0.033284873 0.45106718 0.19234025 0.114876226
0.16426067 0.60823333 0.34865016 0.22230083 -0.112996854 0.5847303 0.23437142 0.12631598
0.31120232 0.14052105 -0.2076197 -0.036942985 -0.40942916 -0.72816634 0.24135368 0.12016014
0.10479817 0.21238583 -0.03960643 0.3274938 -0.47882307 -0.31664485 -0.10935947 0.20473911
-0.14488402 0.08860069 -0.002366633 -0.046147905 -0.056795526 0.61654186 0.105098754 -0.024234096
0.4316698 0.36561865 -0.6005182 0.37509087 0.22997095 0.13961394 0.06633836 0.28041553
0.44781438 0.14828368 0.33257926 0.6966503 -0.03538809 0.17000338 0.36777142 0.18980914
0.39177498 0.048650164 -0.28107923 0.49974492 0.1244848 -0.21796772 -0.31530955 0.37895268
0.07583208 0.06367559 -0.1903488 -0.041027132 -0.13520962 -0.49235263 0.037242126 -0.025402049
0.12938578 0.2389397 0.035193063 0.09239304 -0.13577163 0.061936423 0.20514053 0.21310413
00000000: 13eb 543e 5f0d 9d3e a865 e13c 90ab 5ebe
00000010: 99b5 2c3e d452 bb3e 1460 933d df9a 38be
00000020: e689 bf3d 17d8 47be d32d cbbd 85b7 cc3b
00000030: 9244 d23e ab65 533e b046 21bd 7c77 edbd
00000040: a4e0 2f3e 675d 8bbe 9da7 393e 598a 88be
00000050: 7246 383f fb04 9a3d 45d9 2e3e c4cc 74be
00000060: d1ef 833e d8d2 1b3f af4f 1cbf a3e0 003e
00000070: d98a 273e dc3c 81be 0e29 d6be 78d9 553e
00000080: 7938 3b3d 2813 b03e 363e ba3e 1c4f 033f
00000090: adc2 ab3d 2c6f ccbe a36d b23e 002a 93bd
000000a0: 28a4 24be 041c a23e 56e7 623d dc71 cd3d
000000b0: a3c8 c43e 35d8 e7be 96f2 abbd d601 243e
000000c0: 0c11 0cbe 686a 303e f68c 4cbc 5b51 293c
000000d0: f3f7 893e 815c 363e 49a3 1ebd 5104 103d
000000e0: 0f4b 713d adc5 293e e8c3 703d 2726 c73e
000000f0: afb0 f5bc 2b98 873e 17cb 183d 70bc 523e
00000100: b88d 023e b347 973d 3eb8 463d c36d 243f
00000110: a384 19bf b800 1e3e 27ab c83d f6e8 3e3f
00000120: bf41 353d 4a57 18be 7bd8 6dbd dda0 4fbe
00000130: 42fc 53bf d227 1cbf 8139 19be c764 67be
00000140: 7cad 843d abf9 60be 15dd 6abe caee 023d
00000150: ecaa bebd 1385 9c3d 6854 a0be 6e36 8c3e
00000160: d287 18be c93a 5fbe 7769 89bd b72b 043e
00000170: 72e6 0b3f e278 5d3f b2db 30bd 8613 3f3d
00000180: f9ce 9fbc e826 433e 0f58 89be d1e4 043e
00000190: 1531 0b3e fdcd 01bf bd29 e43d dac0 103e
000001a0: 2495 33be ef29 98bd c346 7b3d 0d56 89bb
000001b0: 1bbd eebd 908d 6c3e ea3a 623c 4ebd 1abf
000001c0: 2a9b 24bd 3082 9dbe 10c0 f2bd 1f77 a1be
000001d0: af5a 1ebf f5c8 433f 509c e2bd e9be 93be
000001e0: 4232 45bd acdb 823d 1100 62bd af0f fa3e
000001f0: 37b4 5ebe c3f3 43bf 8564 9d3e ce43 063f
00000200: 2940 f63d c27d 473e 1ac2 ac3e b587 763e
00000210: 2c78 84bc 9c4b 89bd 3e0e e93e 6635 083f
00000220: 8077 ee3d b7a8 983e 0526 843e df4a 50be
00000230: 459e 2c3e 5a78 223f b7f1 9e3e 3647 09be
00000240: 023f 453e cf90 2b3d 2c32 0ebe 5894 eb3d
00000250: fe08 3fbe 5e0e 2a3e 8baa 28bd f3fa d73c
00000260: 444e c33e 3911 1c3d a0f8 90bd 7b3e ea3d
00000270: 9da9 09bf 5ee1 023c 1f01 9c3d 1c8f df3d
00000280: 3ec6 103f 5d61 7fbe fdcd 283e a84b edbd
00000290: d6a3 78bf f2ef aabe f079 1b3e 056e e4bd
000002a0: 091d 42bd a046 213f e901 12bd 5ba9 863e
000002b0: 30b2 d43d 3e6b 213e 7ead 52bd 1511 b73e
000002c0: 635c 823d b922 2b3f 3749 debb 42ef 123e
000002d0: b855 08bd 47f2 e63e d8f4 443e 3a44 eb3d
000002e0: f333 283e 2eb5 1b3f 4682 b23e d4a2 633e
000002f0: e56a e7bd e3b0 153f 10ff 6f3e fa58 013e
00000300: e955 9f3e c0e4 0f3e 429a 54be 8751 17bd
00000310: b3a0 d1be 1c69 3abf 6b25 773e 8516 f63d
00000320: 6ca0 d63d ac7b 593e 5a3a 22bd 44ad a73e
00000330: 4c28 f5be 461f a2be dcf7 dfbd 21a7 513e
00000340: 7a5c 14be 4774 b53d 8319 1bbb 9605 3dbd
00000350: 6da2 68bd b0d5 1d3f 043e d73d 9586 c6bc
00000360: d303 dd3e 5e32 bb3e 90bb 19bf e90b c03e
00000370: 817d 6b3e f5f6 0e3e 68dc 873d a092 8f3e
00000380: ed47 e53e add7 173e d447 aa3e ad57 323f
00000390: 1af3 10bd 5e15 2e3e 894c bc3e 545d 423e
000003a0: bb96 c83e 6545 473d 9ee9 8fbe 91de ff3e
000003b0: e3f1 fe3d ee32 5fbe 4170 a1be 1606 c23e
000003c0: d94d 9b3d 5968 823d ccea 42be 110c 28bd
000003d0: 6474 0abe a515 fcbe 338b 183d f517 d0bc
000003e0: b57d 043e 9cac 743e 9a26 103d 9038 bd3d
000003f0: b807 0bbe 0cb1 7d3d 5c10 523e f837 5a3e

fc1.bias f4 [128]
-0.40418848 -0.6847123 -0.11384714 0.13961476 -0.26621854 0.110345654 -0.0578206 -0.3436928
-0.095229365 -0.56771845 -0.026973492 -0.34955597 -0.09336384 -0.07748871 0.4676792 0.013793709
-0.12866102 -0.30516386 -0.20042075 -0.18617184 -0.073548675 0.080174856 0.0032833053 -0.3405192
-0.34670812 -0.28268525 -0.106249295 -0.4051211 -0.4364468 0.20503727 -0.07019984 0.034973264
0.008622444 -0.0065298546 -0.3237907 0.1774945 -0.29213002 -0.09024079 -0.31367388 0.20613262
-0.40498888 -0.6801074 -0.17170703 -0.21802922 -0.38034782 0.112428956 -0.2775681 -0.5666859
-0.88380015 -0.38104162 -0.3959801 -0.42501712 0.07289001 -0.3408496 -0.109792106 -0.24702615
-0.7180211 -0.27987584 -0.23800364 -0.037686 0.001496518 -0.19792064 -0.5318282 -0.17349772
-0.2615453 -0.45659706 -0.39048618 -0.3251308 -0.58070797 -0.4682645 -0.110567324 -0.5183771
-0.075239226 -0.16311379 0.5670988 -0.39803675 -0.10599331 0.07491201 -0.14352672 0.34257331
-0.7025345 0.3457725 -0.4697045 0.13061252 -0.20084381 -0.066973604 0.4534568 -0.486862
-0.270435 -0.06052375 -0.19855864 -0.12875766 -0.88114166 0.08175926 -0.18454605 -0.16575818
0.011848056 -0.29169044 0.039539967 0.5342451 0.23911215 -0.7064272 -0.5967485 0.0074065286
-0.4314371 -0.46021184 -0.28504887 -0.06365188 -0.19834231 -0.21077614 0.08515532 0.0106294295
-0.042005386 -0.17429991 -0.07426061 0.13473424 -0.32214224 -0.15598416 -0.2055317 -0.10179362
-0.26746422 -0.23407723 -0.17781265 -0.017102716 -0.32669166 -0.98328173 -0.03745731 0.053512778
00000000: cbf1 cebe 4e49 2fbf b028 e9bd 2cf7 0e3e
00000010: cc4d 88be e7fc e13d 4bd5 6cbd 81f8 afbe
00000020: 9d07 c3bd ff55 11bf 83f7 dcbc 00f9 b2be
00000030: 8a35 bfbd 67b2 9ebd a673 ef3e 02ff 613c
00000040: b7bf 03be 703e 9cbe 193b 4dbe d5a3 3ebe
00000050: b0a0 96bd b732 a43d b92c 573b 8858 aebe
00000060: ba83 b1be 1fbc 90be 3b99 d9bd 086c cfbe
00000070: f475 dfbe 4af5 513e efc4 8fbd 2040 0f3d
00000080: 2745 0d3c 64f8 d5bb e5c7 a5be 1ec1 353e
00000090: 1192 95be 2ad0 b8bd dd99 a0be 6e14 533e
000000a0: b45a cfbe 851b 2ebf f8d3 2fbe 0d43 5fbe
000000b0: f3bc c2be 2741 e63d 681d 8ebe 5412 11bf
000000c0: ba40 62bf e317 c3be e7bd cabe d89b d9be
000000d0: 5c47 953d d783 aebe afda e0bd 6cf4 7cbe
000000e0: 3bd0 37bf e34b 8fbe 3ab7 73be a35c 1abd
000000f0: d026 c43a b5ab 4abe e525 08bf 63a9 31be
00000100: 44e9 85be 17c7 e9be ceed c7be 8b77 a6be
00000110: 47a9 14bf 5dc0 efbe 1f71 e2bd 5db4 04bf
00000120: 0617 9abd 4d07 27be 632d 113f 79cb cbbe
00000130: 0513 d9bd 786b 993d abf8 12be c565 af3e
00000140: 4dd9 33bf 1809 b13e 1c7d f0be 4abf 053e
00000150: 00aa 4dbe 7529 89bd 7d2b e83e fa45 f9be
00000160: 7576 8abe c0e7 77bd f552 4bbe 0cd9 03be
00000170: 8092 61bf 6671 a73d a4f9 3cbe 83bc 29be
00000180: 591e 423c 7358 95be a9f4 213d 49c4 083f
00000190: d1d9 743e 6ad8 34bf 82c4 18bf 77b2 f23b
000001a0: 53e5 dcbe e3a0 ebbe edf1 91be eb5b 82bd
000001b0: 3f1a 4bbe b3d5 57be ea65 ae3d 0f27 2e3c
000001c0: d70d 2cbd ad7b 32be f215 98bd c6f7 093e
000001d0: d4ef a4be 50ba 1fbe e776 52be 2c79 d0bd
000001e0: 12f1 88be f1b1 6fbe 8514 36be ff1a 8cbc
000001f0: 2144 a7be 5ab8 7bbf d66c 19bd 3730 5b3d

fc2.weight f4 [128, 128]
-0.35375112 -0.2382348 0.022430267 0.08782872 -0.11596264 -0.1231307 0.044413272 -0.3327501
0.084911466 0.61612266 -0.16432928 -0.28320614 0.16834995 0.32075 0.10503403 -1.1418861
-0.6667583 -0.09449772 -0.15618119 0.45099708 0.1517123 -1.0991515 -0.41859418 -0.32478637
-0.19784029 -0.33084044 -0.30363017 -0.31713736 -0.19834462 0.09418076 0.30677333 -0.49243444
-0.50376153 0.31478098 -1.0004209 0.055615056 0.25697428 -0.060018927 0.41627714 -0.47078547
-0.048103876 -0.4456004 0.051582787 -0.098031364 -0.1036657 -0.18434104 -0.10636017 0.4938022
-0.3202229 -0.17397392 -0.082775615 -0.29508543 -0.18172741 -0.08671762 -0.17189667 -0.42484918
-0.268914 -0.48785248 -0.42687246 0.0914467 -0.03147323 -0.8462975 -0.04095355 0.3928071
0.057108898 0.17997085 -0.24282879 -0.42553312 -0.19054693 -0.45339882 -0.29766083 0.0900061
-0.086349785 0.21106672 -0.07624721 0.38273856 -0.09792287 -0.5955745 -0.4037174 0.15286995
0.05909307 -0.15151863 -0.21455753 0.22472176 -0.27018902 0.082219064 -0.43953866 0.22264598
0.009387551 0.036861897 0.4048674 0.03470597 -0.48619977 0.33865666 0.1923792 0.5066864
-0.23698796 -0.24081227 0.05202915 -0.03363129 -0.4404358 -0.3201832 -0.15030247 -0.08425758
-0.017689735 -0.56666344 -0.42384198 0.4225208 -0.3660103 -0.032266553 0.09039696 -0.07330991
0.3113187 -0.43025485 0.11169218 -0.07988509 0.061113715 -0.011612056 0.12571314 -0.39835018
-0.5464519 -0.14098367 -0.054287545 0.035076156 -0.16159394 -0.01234442 0.38434687 -0.56727934
-0.40661818 -0.05749115 0.084039725 -0.056254234 -0.1554537 0.22417815 -0.059811603 0.21192284
0.02240177 0.34002858 -0.1181405 -0.1434249 0.4293672 0.12114281 -0.6547397 -0.20567667
-0.21124177 0.45620632 0.3140299 -0.2684077 0.39589262 -0.07567246 0.091471545 -0.3515766
-0.12844904 -0.031299308 0.0656818 -0.38769197 -0.55256516 -0.4266419 0.26786453 0.49549004
0.1283973 -0.10193082 -0.008690754 -0.10321846 -0.31814414 -0.050772943 -0.21286695 0.1870436
-0.18303499 -0.22660187 0.25330335 -0.30545798 0.30456495 -0.087941125 -0.106482714 0.26922363
-0.27340886 0.40821543 -0.34091708 -0.35312653 0.11398172 0.025064899 -0.43109378 -0.034440123
-0.61028886 0.48957676 -0.06926688 -0.2683036 -0.1829387 -0.41193685 -0.7182601 -0.7162829
0.054983556 0.041264687 0.24162872 -0.09181323 -0.14425571 0.5390974 -0.1094342 0.0075361533
0.15017056 -0.31468475 -0.060232446 -0.449256 -0.24533509 0.22553177 -0.29354027 0.081960596
-0.07609468 -0.30300736 -0.8758658 -0.42635357 -0.32060722 -0.34766653 -0.05640302 0.65427005
-0.19029857 -0.066256694 0.06414768 0.30384156 -0.35014492 -0.18717189 -0.017269641 -0.70773196
-0.20861894 0.3567172 -0.017263921 -0.11472938 -0.102042496 -0.19252247 -0.74287987 -0.5371614
0.40494967 -0.49146837 0.4389734 -0.30336216 0.2970253 -0.43278974 -0.1460422 0.14469522
0.34944907 -0.33426943 -0.054384045 0.067014776 -0.69932216 -0.31593165 -0.3839577 -0.20183425
0.11449257 -0.4316779 -0.32508978 0.21109082 -0.63420045 -0.33306247 -0.08890327 0.0972564
00000000: de1e b5be d3f3 73be aebf b73c 8bdf b33d
00000010: d27d edbd f32b fcbd b1ea 353d 395e aabe
00000020: 10e6 ad3d 37ba 1d3f ef45 28be 6500 91be
00000030: ee63 2c3e 5839 a43e 151c d73d 5329 92bf
00000040: acb0 2abf 0588 c1bd f6ed 1fbe 17e9 e63e
00000050: 785a 1b3e ffb0 8cbf fa51 d6be 664a a6be
00000060: a596 4abe eb63 a9be 6a75 9bbe d45f a2be
00000070: da1a 4bbe d8e1 c03d 6511 9d3e 5e20 fcbe
00000080: 84f6 00bf f92a a13e cb0d 80bf 9dcc 633d
00000090: 2292 833e 68d6 75bd 4722 d53e cb0a f1be
000000a0: 9208 45bd bc25 e4be 7948 533d abc4 c8bd
000000b0: af4e d4bd e6c3 3cbe 5cd3 d9bd a4d3 fc3e
000000c0: 42f4 a3be 3826 32be 4386 a9bd 7015 97be
000000d0: c016 3abe 0299 b1bd ae05 30be d585 d9be
000000e0: 19af 89be cdc7 f9be 078f dabe 6848 bb3d
000000f0: 13ea 00bd f4a6 58bf e9be 27bd 031e c93e
00000100: 05eb 693d 474a 383e 1ca8 78be 7adf d9be
00000110: bc1e 43be e423 e8be 0067 98be 1e55 b83d
00000120: 28d8 b0bd e021 583e 7f27 9cbd 4ff6 c33e
00000130: c98b c8bd 9277 18bf 0cb4 cebe f189 1c3e
00000140: 930b 723d b327 1bbe f8b4 5bbe 761d 663e
00000150: 3756 8abe 7862 a83d 360b e1be 4ffd 633e
00000160: 3ece 193c 80fc 163d c84a cf3e d927 0e3d
00000170: 2def f8be 6864 ad3e 0eff 443e 33b6 013f
00000180: f9ac 72be 7e97 76be 851c 553d f7c0 09bd
00000190: cd80 e1be 0def a3be e4e8 19be 3d8f acbd
000001a0: 10ea 90bc db10 11bf d101 d9be a554 d83e
000001b0: b465 bbbe ef29 04bd 0b22 b93d 8223 96bd
000001c0: 2a65 9f3e 5d4a dcbe dfbe e43d cb9a a3bd
000001d0: 6052 7a3d 7e40 3ebc f2ba 003e 8ef4 cbbe
000001e0: 46e4 0bbf 065e 10be 9e5c 5ebd 04ac 0f3d
000001f0: e278 25be 4040 4abc 1dc9 c43e 3839 11bf
00000200: 4230 d0be d77b 6bbd 051d ac3d d76a 66bd
00000210: 412f 1fbe f58e 653e 03fd 74bd 4d02 593e
00000220: eb83 b73c 3a18 ae3e a5f3 f1bd fadd 12be
00000230: 05d6 db3e b919 f83d 059d 27bf e89c 52be
00000240: c34f 58be e093 e93e 87c8 a03e bc6c 89be
00000250: 70b2 ca3e 2afa 9abd 6f55 bb3d d901 b4be
00000260: 2588 03be b433 00bd 2e84 863d 907f c6be
00000270: e974 0dbf cf70 dabe 8a25 893e dfb0 fd3e
00000280: 957a 033e 1bc1 d0bd aa63 0ebc 3364 d3bd
00000290: cae3 a2be 4af7 4fbd cbf9 59be 5c88 3f3e
000002a0: 866d 3bbe 520a 68be fab0 813e fd64 9cbe
000002b0: f0ef 9b3e 7a1a b4bd 9c13 dabd aed7 893e
000002c0: 3ffc 8bbe 9d01 d13e af8c aebe 00cd b4be
000002d0: 3f6f e93d e754 cd3c 53b8 dcbe 1611 0dbd
000002e0: e43b 1cbf cea9 fa3e cbdb 8dbd 175f 89be
000002f0: 4854 3bbe 63e9 d2be e5df 37bf 515e 37bf
00000300: 7036 613d 2905 293d 856d 773e 9308 bcbd
00000310: c5b7 13be 4a02 0a3f 0a1f e0bd d6f1 f63b
00000320: 50c6 193e 5c1e a1be 4cb6 76bd e204 e6be
00000330: 1f39 7bbe cdf1 663e e94a 96be f5da a73d
00000340: 87d7 9bbd c823 9bbe be38 60bf 044b dabe
00000350: a126 a4be 5901 b2be da06 67bd 3e7e 273f
00000360: a1dd 42be 97b1 87bd dc5f 833d 1f91 9b3e
00000370: 3246 b3be fda9 3fbe 1079 8dbc ec2d 35bf
00000380: 34a0 55be a3a3 b63e 116d 8dbc 3df7 eabd
00000390: a8fb d0bd 9c24 45be 602d 3ebf 6983 09bf
000003a0: 9055 cf3e bea1 fbbe 1fc1 e03e 4952 9bbe
000003b0: b313 983e 9e96 ddbe 168c 15be fc2a 143e
000003c0: fdea b23e 5d25 abbe cec1 5ebd 0b3f 893d
000003d0: c706 33bf cbc1 a1be 1b96 c4be a3ad 4ebe
000003e0: 157b ea3d e304 ddbe 2b72 a6be 3128 583e
000003f0: f65a 22bf 2a87 aabe eb12 b6bd 5d2e c73d

fc2.bias f4 [128]
0.23203005 -0.03724344 0.13636975 -0.21108548 0.014519824 -0.2533593 -0.11053898 -0.10341823
-0.3585352 -0.33526376 0.057912964 -0.22388671 -0.5541274 0.20172837 -0.5810852 -0.27647832
0.17901964 0.31975865 -0.19651306 0.12454139 -0.07184381 -0.22987936 0.07730263 0.28727543
0.08544505 -0.17122428 -0.5903524 0.06067307 0.024077404 -0.092895724 -0.1838983 -0.32304403
-0.042617414 -0.12338505 0.18842243 0.062865935 0.02332726 0.079334415 -0.20739551 -0.035617985
0.19581984 -0.047103398 -0.035361093 0.034831166 -0.19422379 -0.06752 -0.05147328 -0.087459795
0.21966499 -0.04002185 0.004717753 -0.4301632 0.09904512 0.036084462 -0.19636829 -0.30019248
0.14316183 -0.35477427 0.021802315 0.018905232 -0.09852602 -0.15783866 0.04742297 -0.2517051
-0.13058221 0.064875714 -0.3184516 -0.36177626 -0.11232251 0.0902926 -0.1432052 0.009305196
-0.023916116 0.037008166 0.25288904 -0.20341544 0.24819215 0.042883717 -0.46572223 -0.13791718
0.03476228 -0.056867596 0.072149314 -0.45136958 0.0060404195 -0.043044332 -0.13891946 0.23228855
-0.2862084 0.07663664 0.14942418 0.04541572 0.22637144 -0.01713055 -0.26083878 -0.34133297
-0.22725944 -0.7762477 0.26405996 -0.25261354 -0.3690693 0.13593495 -0.086803935 -0.2554603
0.04495028 -0.0017424425 -0.082226105 -0.2383508 -0.7138313 -0.8410433 -0.07932538 0.03727443
0.14023216 -0.032635625 -0.13498886 0.058187846 0.10584456 -0.0028462452 -0.6599541 -0.16408868
-0.74129206 -0.25311157 0.12971415 -0.057480745 -0.0764766 0.07430983 -0.50965166 -0.058968943
00000000: 4999 6d3e 948c 18bd 83a4 0b3e cb26 58be
00000010: 8ee4 6d3c 4fb8 81be 4362 e2bd f0cc d3bd
00000020: ed91 b7be b1a7 abbe 2536 6d3d 8f42 65be
00000030: 4bdb 0dbf e291 4e3e 00c2 14bf 918e 8dbe
00000040: ed50 373e 68b7 a33e b83a 49be 8e0f ff3d
00000050: d922 93bd 7f65 6bbe d750 9e3d c415 933e
00000060: d0fd ae3d 6b55 2fbe 5621 17bf 5384 783d
00000070: fa3d c53c 1d40 bebd d64f 3cbe 0766 a5be
00000080: 998f 2ebd 4db1 fcbd cff1 403e dbbf 803d
00000090: cf18 bf3c 157a a23d 7d5f 54be 2ae4 11bd
000000a0: ff84 483e 7eef 40bd cbd6 10bd 20ab 0e3d
000000b0: 9ae2 46be ed47 8abd a5d5 52bd 1f1e b3bd
000000c0: dcef 603e f4ed 23bd 6197 9a3b 5a3e dcbe
000000d0: 2bd8 ca3d 4dcd 133d c514 49be d4b2 99be
000000e0: 0499 123e f9a4 b5be c59a b23c 25df 9a3c
000000f0: 03c8 c9bd 75a0 21be 973e 423d 7edf 80be
00000100: 58b7 05be 8fdd 843d 170c a3be bd3a b9be
00000110: 5809 e6bd 54eb b83d 62a4 12be d274 183c
00000120: bbeb c3bc e095 173d ac7a 813e 234c 50be
00000130: 1526 7e3e d6a6 2f3d 2573 eebe 293a 0dbe
00000140: e462 0e3d ffed 68bd 05c3 933d ea19 e7be
00000150: b6ee c53b 414f 30bd e740 0ebe 0ddd 6d3e
00000160: e889 92be acf3 9c3d a702 193e d605 3a3d
00000170: eacd 673e 5e55 8cbc a98c 85be 32c3 aebe
00000180: b3b6 68be 2bb8 46bf de32 873e 9056 81be
00000190: a7f6 bcbe 8832 0b3e 43c6 b1bd b1cb 82be
000001a0: c91d 383d ab62 e4ba 2966 a8bd 3b12 74be
000001b0: a6bd 36bf 9d4e 57bf 5875 a2bd 13ad 183d
000001c0: 0599 0f3e efac 05bd 853a 0abe 6156 6e3d
000001d0: 08c5 d83d 1288 3abb c0f2 28bf dd06 28be
000001e0: 51c5 3dbf d797 81be c9d3 043e ee70 6bbd
000001f0: c39f 9cbd c12f 983d 8878 02bf 6b89 71bd

fc3.weight f4 [2, 128]
0.5677579 -0.081329554 -0.3201329 0.7419333 -0.03575415 0.5742011 0.3327066 0.45187333
0.22474965 -0.3423441 -0.7147466 -0.9725661 -0.7010016 0.019299738 0.24316727 0.33729783
-0.06506975 -1.3312864 0.025188254 0.17776935 0.7371992 0.5181679 -0.39359468 -0.18505117
-0.015963934 -1.3096191 -0.704774 0.052624807 0.0063062906 0.008349113 -0.04313991 -0.379477
-0.4075629 -0.32021075 0.055373248 -0.20614164 0.27124873 0.81689966 0.040596943 -0.28996906
-1.2484877 0.040182233 -0.70293856 0.65618694 -0.41729856 -0.85874295 0.11469039 0.2254355
0.03154605 -0.16961262 0.14851856 -0.45817986 0.0967575 -0.05687445 0.13046896 0.2686252
-0.29306442 0.4340367 -0.23918465 0.36308527 0.012200567 -1.0471444 -0.77280176 -0.84550667
0.21543711 -0.6471749 0.29978004 0.50459594 0.13677603 0.026465375 0.07182222 0.04112665
0.012752111 0.14460146 -0.29585394 0.4262306 -0.18472432 -0.41914287 0.16043024 0.16596188
-0.36052135 0.05442378 -0.18045235 -0.010333468 0.52010506 0.66590136 -0.36383963 -0.10720095
0.4516179 -0.029918615 -0.20579238 -0.28927484 -1.2714152 -0.28472784 -0.31885222 0.2555406
0.1162664 -0.10778825 0.14196514 0.92632264 0.2947691 -0.053373337 -0.28727537 0.038314976
-0.5087845 -0.09678518 0.17566852 0.099026866 -0.6275147 -0.83824915 0.20636323 0.115435675
0.10720778 0.39909196 0.044407967 0.4707453 -0.083295025 0.1582627 -0.47775605 -0.22877435
-0.30544272 0.48292643 0.45255533 0.5986862 -0.035378773 -0.23518012 -0.5861628 -0.08726098
-0.2898065 0.55054396 -0.038535096 -0.3314507 0.5172607 0.03971358 -0.4505454 -0.12156405
-0.46689317 -0.043741155 -0.64304316 -0.3877141 -0.27990946 -0.5566298 -0.7208781 -0.11834434
-0.64880407 0.8497774 -0.17046209 0.24782817 -0.084552824 0.1116441 0.64094305 1.0584617
-0.6354121 0.14716873 0.27947477 -0.80914664 0.3966997 -0.7567291 0.16075687 -1.1954361
0.02745893 -0.1762879 -0.6557627 -0.9888765 0.07012472 -0.17760986 -1.0066332 1.0864631
0.18532933 -0.61769444 -0.3144617 0.06066768 0.110908 0.17795298 -0.80677205 0.0131672425
-0.8431383 -0.46907005 -0.41901127 0.064056434 -0.6675926 -0.24802575 -1.2134429 0.48111904
0.39016902 -0.624666 0.99051905 0.27835822 0.7214551 -0.03801324 0.06549878 0.19431673
0.40938273 -0.08373095 -0.80000776 -0.44272918 -0.26159096 -0.1833107 0.56673354 0.7414558
-0.82712525 1.5215247 0.39304435 0.256623 -0.48643553 -0.51439476 0.9211511 -0.3010253
0.15716138 -0.12166765 -0.08169883 -1.1332598 -0.12100364 0.20203033 -0.7221405 -0.9961554
-0.20768064 1.2640191 -0.5974044 -0.60125935 0.8563438 0.18765052 -0.85194343 -0.51589596
0.50178623 0.8078178 1.4130198 -0.26658762 0.13077028 0.37879 -0.22289445 -0.29126433
-0.5205714 -0.62445 0.06837794 0.0067837443 -0.14785188 -0.12578304 0.2692278 -0.29564244
-0.8852963 0.16465393 -0.10134522 -0.50284284 -1.2776815 -1.239669 0.24749616 -0.0836977
0.39520186 -0.18497662 0.31897074 0.16396204 -0.5056772 -0.53451794 0.06851761 -1.2992126
00000000: 9558 113f 1c90 a6bd 76e8 a3be 57ef 3d3f
00000010: f272 12bd d8fe 123f 8558 aa3e f15b e73e
00000020: c624 663e ba47 afbe a2f9 36bf 18fa 78bf
00000030: d774 33bf 7c1a 9e3c d700 793e 4db2 ac3e
00000040: 4a43 85bd 9867 aabf 9957 ce3c 2b09 363e
00000050: 16b9 3c3f a7a6 043f 3e85 c9be 0e7e 3dbe
00000060: ccc6 82bc 99a1 a7bf 126c 34bf 1c8d 573d
00000070: 00a5 ce3b b8ca 083c 79b3 30bd cf4a c2be
00000080: 16ac d0be aaf2 a3be 0fcf 623d cb16 53be
00000090: 1de1 8a3e 5620 513f fb48 263d d376 94be
000000a0: 72ce 9fbf 2096 243d c8f3 33bf defb 273f
000000b0: 28a8 d5be 94d6 5bbf cce2 ea3d 90d8 663e
000000c0: 6e36 013d eeae 2dbe 4015 183e 8d96 eabe
000000d0: cc28 c63d 2ff5 68bd a899 053e 3e89 893e
000000e0: 8a0c 96be 0f3a de3e d2ec 74be 50e6 b93e
000000f0: e3e4 473c d408 86bf 56d6 45bf 2073 58bf
00000100: 8c9b 5c3e 41ad 25bf c57c 993e 332d 013f
00000110: 040f 0c3e eacd d83c 8717 933d 6b74 283d
00000120: 3bee 503c 6812 143e 2b7a 97be e63a da3e
00000130: 5f28 3dbe e599 d6be d347 243e e9f1 293e
00000140: 4196 b8be 78eb 5e3d 80c8 38be b54d 29bc
00000150: 9b25 053f 8378 2a3f 3049 babe 2c8c dbbd
00000160: 763a e73e e217 f5bc 3dbb 52be d51b 94be
00000170: bcbd a2bf d9c7 91be 9940 a3be 38d6 823e
00000180: 141d ee3d 16c0 dcbd 4f5f 113e 7b23 6d3f
00000190: faeb 963e 009e 5abd c215 93be 2af0 1c3d
000001a0: b33f 02bf 4f37 c6bd 73e2 333e 99ce ca3d
000001b0: cea4 20bf 7f97 56bf e250 533e 8a69 ec3d
000001c0: c18f db3d c855 cc3e 21e5 353d 8705 f13e
000001d0: 9596 aabd 9e0f 223e 719c f4be d343 6abe
000001e0: fd62 9cbe 2242 f73e 55b5 e73e 8043 193f
000001f0: 55e9 10bd 0fd3 70be c40e 16bf e2b5 b2bd
00000200: 8461 94be 73f0 0c3f fad6 1dbd e8b3 a9be
00000210: 326b 043f b5aa 223d e3ad e6be 93f6 f8bd
00000220: 9f0c efbe ed29 33bd 7a9e 24bf 7682 c6be
00000230: 4b50 8fbe 4a7f 0ebf 788b 38bf 845e f2bd
00000240: 0618 26bf 038b 593f 9d8d 2ebe abc6 7d3e
00000250: 082a adbd a9a5 e43d d814 243f ac7b 873f
00000260: 5eaa 22bf 66b3 163e 5117 8f3e 3c24 4fbf
00000270: 391c cb3e 00b9 41bf 739d 243e 0d04 99bf
00000280: 8df1 e03c d184 34be 10e0 27bf 0327 7dbf
00000290: 8d9d 8f3d 5cdf 35be 5bd9 80bf 3911 8b3f
000002a0: f9c6 3d3e 3921 1ebf 2001 a1be ac7e 783d
000002b0: bc23 e33d 4e39 363e 9d88 4ebf 6bbb 573c
000002c0: e9d7 57bf f329 f0be a588 d6be 0530 833d
000002d0: 59e7 2abf 76fa 7dbe 1952 9bbf 3c55 f63e
000002e0: 3cc4 c73e 1cea 1fbf a892 7d3f f884 8e3e
000002f0: 48b1 383f c5b3 1bbd 3924 863d f7fa 463e
00000300: 9d9a d13e 227b abbd 4fcd 4cbf 66ad e2be
00000310: 40ef 85be cdb5 3bbe 7315 113f 0cd0 3d3f
00000320: 7bbe 53bf 52c1 c23f 1c3d c93e 1764 833e
00000330: 140e f9be 60af 03bf 8fd0 6b3f fd1f 9abe
00000340: eaee 203e e42c f9bd b751 a7bd a80e 91bf
00000350: c2d0 f7bd 0ae1 4e3e 33de 38bf 0a04 7fbf
00000360: 3caa 54be 61cb a13f 7fef 18bf 22ec 19bf
00000370: 5939 5b3f 7527 403e f718 5abf c211 04bf
00000380: 1075 003f 26cd 4e3f d5dd b43f 2c7e 88be
00000390: a5e8 053e c3f0 c13e 713e 64be 9920 95be
000003a0: 2b44 05bf f5db 1fbf bc09 8c3d 2c4a de3b
000003b0: 7c66 17be 45cd 00be 3ad8 893e 725e 97be
000003c0: c7a2 62bf 0a9b 283e 158e cfbd 4fba 00bf
000003d0: 118b a3bf 79ad 9ebf a26f 7d3e b369 abbd
000003e0: e657 ca3e 836a 3dbe 2250 a33e aae5 273e
000003f0: 1074 01bf 2bd6 08bf f652 8c3d 994c a6bf

fc3.bias f4 [2]
-0.05933168 0.019144112
00000000: c705 73bd 1dd4 9c3c

bn.weight f4 [24]
0.40661943 0.17958972 -0.011981749 0.099717535 1.1963245 1.3149989 0.15338877 0.22340955
0.6630864 0.38853812 0.020976488 0.16302834 0.3452835 0.8092134 0.27936575 0.24293445
0.8010178 0.8461464 0.4555044 0.6984525 1.4673207 1.420614 0.27115285 0.24950875
00000000: 6c30 d03e 5ee6 373e 194f 44bc b538 cc3d
00000010: 2921 993f e251 a83f f211 1d3e 79c5 643e
00000020: 08c0 293f 78ee c63e e2d6 ab3c e7f0 263e
00000030: 00c9 b03e 9c28 4f3f 0709 8f3e cfc3 783e
00000040: 810f 4d3f 0d9d 583f df37 e93e c8cd 323f
00000050: 2ad1 bb3f aed6 b53f 8cd4 8a3e 397f 7f3e

bn.bias f4 [24]
0.13253374 -0.52827954 0.45597398 -0.042433824 0.2270859 0.08243752 0.06452696 -0.076735556
0.24660966 -0.4410273 -0.0074242353 -0.4005412 0.39612997 0.22927323 0.045330696 -0.01110007
0.30111092 -0.43623316 0.28663224 -0.15308239 0.30328757 0.4340263 0.19685695 -0.08210306
00000000: edb6 073e 543d 07bf 6c75 e93e 17cf 2dbd
00000010: 3589 683e 01d5 a83d b626 843d 8827 9dbd
00000020: 3e87 7c3e 55ce e1be 0047 f3bb bc13 cdbe
00000030: 8cd1 ca3e 9ac6 6a3e aeac 393d 11dd 35bc
00000040: 362b 9a3e f459 dfbe 76c1 923e a1c1 1cbe
00000050: 8248 9b3e b238 de3e de94 493e a625 a8bd

bn.running_mean f4 [24]
-5.6413136 -0.9728514 7.4008894 0.01861099 -0.14597675 3.2600963 7.4008894 0.01861099
-5.736937 -1.0015515 7.598402 -0.039207835 -0.115256496 3.2124605 7.598402 -0.039207835
-5.855887 -1.037754 7.8349004 -0.05827529 -0.10010737 3.1670363 7.8349004 -0.05827529
00000000: a485 b4c0 ca0c 79bf 16d4 ec40 1376 983c
00000010: ee7a 15be 6ba5 5040 16d4 ec40 1376 983c
00000020: fd94 b7c0 d732 80bf 1c26 f340 6598 20bd
00000030: 990b ecbd f498 4d40 1c26 f340 6598 20bd
00000040: 6d63 bbc0 20d5 84bf 81b7 fa40 12b2 6ebd
00000050: 1805 cdbd b9b0 4a40 81b7 fa40 12b2 6ebd

bn.running_var f4 [24]
19.52392 1.0525663 335.8155 8.501995 32.636456 3.6466866 335.8155 8.501995
19.233728 1.0526721 338.08063 8.7838955 34.29935 3.9072096 338.08063 8.7838955
18.679955 1.0416315 350.3717 9.2368555 36.29391 4.4019575 350.3717 9.2368555
00000000: fd30 9c41 7eba 863f 62e8 a743 2c08 0841
00000010: bb8b 0242 5063 6940 62e8 a743 2c08 0841
00000020: adde 9941 f6bd 863f 520a a943 d68a 0c41
00000030: 8932 0942 b90f 7a40 520a a943 d68a 0c41
00000040: 8c70 9541 2e54 853f 942f af43 29ca 1341
00000050: f72c 1142 d6dc 8c40 942f af43 29ca 1341
